model.pth (torch, 18021 bytes, 9 tensors)

base_model.model.fc1.base_layer.weight f4 [64, 7]
-0.33976713 0.08797687 0.0555605 -0.09580037 -0.10779551 0.10523093 -0.252995 -0.010213137
-0.027420402 -0.34755778 0.11907333 -0.27551594 0.21205804 0.14029029 0.35162988 0.13503972
0.16530588 0.32860503 -0.24218233 -0.35148066 -0.029795289 -0.22163004 0.04722613 0.22162667
-0.25811413 -0.05805397 -0.3589769 -0.34853697 -0.36152056 -0.35759124 -0.118680835 0.037146837
-0.30163938 0.14780256 -0.23722954 0.20093182 0.08195087 -0.08547279 -0.24056867 0.21103737
-0.2113715 0.12568638 0.18340406 -0.0132320225 -0.08388576 0.22119418 0.37795755 -0.00026220083
-0.3136278 0.20002565 -0.098742366 0.10778555 0.09158379 0.17446259 0.31060573 -0.11677319
0.35807386 -0.098970234 0.09063473 -0.002545029 0.16366687 0.2771611 -0.24775407 0.25052765
0.22151193 0.015680641 0.14046243 -0.36677802 -0.18131706 0.006098181 0.12366566 -0.04005438
0.013689935 -0.25861084 0.25236925 0.11298269 -0.34596282 -0.15689015 0.12712029 -0.20670499
-0.36830622 0.31311277 -0.18053353 0.22392747 -0.22626495 -0.16379435 0.13104114 -0.23460944
0.02803573 0.02519077 -0.109968334 -0.07851881 0.3576273 -0.16788363 -0.35430884 0.017656803
-0.126465 -0.03792578 0.3746799 -0.03907737 -0.10963577 -0.057697207 -0.23328076 -0.26034632
0.09689811 -0.029797196 0.17631593 0.10678181 -0.37384456 0.22058663 -0.013130605 0.30386224
0.34348127 -0.06987241 0.30343637 -0.15365891 -0.08713311 -0.3694936 0.16813985 -0.22392213
0.36753955 0.11330816 -0.3760077 -0.30273885 -0.36772552 0.21049264 -0.09185439 -0.30606627
0.03148994 0.24269906 -0.04751897 0.12783787 0.04723975 0.12776169 -0.26381525 0.25864378
0.095888525 0.37275496 0.13745305 0.02757439 0.16411307 -0.07918507 0.2788072 0.35099956
-0.36209723 0.052675575 0.3140414 -0.08775449 0.3473036 -0.10255045 0.25720772 0.24139228
0.112959296 -0.24321084 0.15076885 -0.144796 -0.11194146 0.19428924 -0.32822677 -0.24968573
-0.34848356 -0.11904073 0.18079248 0.17255828 -0.30287343 -0.18309209 0.30089512 -0.19766131
0.117103934 0.22103283 -0.2351257 0.35369614 0.21700826 0.026256591 0.26780602 -0.12134433
0.006466329 -0.0384472 0.16693208 -0.015201062 0.2768081 -0.31199864 0.37696084 0.3278559
-0.20084786 0.02179131 0.0014049709 0.07973251 -0.10072604 0.033309907 -0.08209872 -0.30942875
0.086744845 -0.3003225 -0.15389013 0.037639827 -0.113389194 -0.0076613426 -0.32794803 0.3535916
-0.27566516 -0.099671274 -0.31791416 -0.29791966 0.14583066 -0.32520497 0.1465598 0.26624462
-0.03192973 0.18067524 -0.18703267 -0.07914376 0.053262234 -0.28625536 0.30740812 -0.36520305
0.13619843 -0.21305066 0.114873946 0.16656503 0.27353522 0.113470644 -0.075763464 -0.2587275
-0.2462579 -0.0015467703 0.10216966 -0.30752823 -0.11559874 -0.086021006 -0.25951606 0.3645641
0.032841474 -0.1334157 -0.019319534 -0.27770197 0.23885009 -0.26034176 -0.13356908 0.2774513
0.29731944 0.28693095 0.3411586 -0.029265374 -0.27066076 -0.1383812 -0.16042784 -0.21716793
0.24523363 0.3128616 -0.24963911 -0.17109597 0.17861918 0.24794021 0.36746064 0.024283528
00000000: f5f5 adbe 382d b43d 6893 633d fc32 c4bd
00000010: e4c3 dcbd 5083 d73d 9088 81be 0055 27bc
00000020: c0a0 e0bc 18f3 b1be b8dc f33d 6d10 8dbe
00000030: be25 593e 42a8 0f3e d508 b43e da47 0a3e
00000040: f245 293e eb3e a83e a5fe 77be 46f5 b3be
00000050: 4015 f4bc fcf2 62be 3070 413d 1af2 623e
00000060: 8927 84be 00ca 6dbd d2cb b7be 7073 b2be
00000070: 3919 b9be 3316 b7be f00e f3bd 4827 183d
00000080: 7a70 9abe 8e59 173e 4dec 72be 12c1 4d3e
00000090: dcd5 a73d 5c0c afbd a257 76be 2e1a 583e
000000a0: c571 58be eeb3 003e 46ce 3b3e 20cb 58bc
000000b0: 4ccc abbd ba80 623e a783 c13e 0078 89b9
000000c0: d393 a0be 86d3 4c3e 7039 cabd acbe dc3d
000000d0: 4890 bb3d 52a6 323e b707 9f3e c826 efbd
000000e0: 7555 b73e e8b0 cabd b49e b93d 80ca 26bb
000000f0: 4a98 273e 0fe8 8d3e 3eb3 7dbe 2945 803e
00000100: 06d4 623e b074 803c 62d5 0f3e 54ca bbbe
00000110: 2eab 39be 40d3 c73b 6c44 fd3d 1010 24bd
00000120: c04b 603c a468 84be 8b36 813e 7863 e73d
00000130: 0a22 b1be d0a7 20be d22b 023e 79aa 53be
00000140: a292 bcbe 5150 a03e c8dd 38be 3e4d 653e
00000150: 00b2 67be b5b9 27be a62f 063e 753d 70be
00000160: 30ab e53c e05c ce3c 1437 e1bd 78ce a0bd
00000170: ed1a b73e b0e9 2bbe f867 b5be 00a5 903c
00000180: 0a80 01be 1058 1bbd 0bd6 bf3e 980f 20bd
00000190: b888 e0bd e853 6cbd 27e1 6ebe 1d4c 85be
000001a0: 8472 c63d 4019 f4bc 2a8c 343e 6cb0 da3d
000001b0: 8e68 bfbe 76e1 613e c021 57bc d593 9b3e
000001c0: c7dc af3e 4419 8fbd 035c 9b3e c358 1dbe
000001d0: d872 b2bd 442e bdbe da2c 2c3e d84b 65be
000001e0: 252e bc3e 1c0e e83d 1584 c0be 9600 9bbe
000001f0: 8546 bcbe 628b 573e 281e bcbd b8b4 9cbe
00000200: 98fb 003d 1a86 783e 40a3 42bd eee7 023e
00000210: 787e 413d f6d3 023e cb12 87be f56c 843e
00000220: 3461 c43d bdd9 be3e 7ec0 0c3e b0e3 e13c
00000230: 420d 283e c82b a2bd d1bf 8e3e 37b6 b33e
00000240: cf64 b9be 58c2 573d 09ca a03e a0b8 b3bd
00000250: c7d1 b13e f805 d2bd bbb0 833e 8a2f 773e
00000260: 3457 e73d 430c 79be 2663 1a3e 6745 14be
00000270: 9041 e5bd c2f3 463e 570d a8be 9ead 7fbe
00000280: 706c b2be a0cb f3bd aa21 393e 1eb3 303e
00000290: 3a12 9bbe 7e7c 3bbe ed0e 9a3e ba67 4abe
000002a0: 30d4 ef3d 6e56 623e cbc4 70be a917 b53e
000002b0: 6a37 5e3e 1018 d73c df1d 893e 6083 f8bd
000002c0: 80e3 d33b d07a 1dbd 3ef0 2a3e e00d 79bc
000002d0: cbb9 8d3e 49be 9fbe 0301 c13e bbdc a73e
000002e0: 10ab 4dbe b083 b23c 0027 b83a cc4a a33d
000002f0: 7449 cebd f86f 083d 6023 a8bd 726d 9ebe
00000300: 48a7 b13d dfc3 99be 6095 1dbe 382c 1a3d
00000310: 9838 e8bd 000c fbbb cee8 a7be f509 b53e
00000320: fc23 8dbe 7420 ccbd a5c5 a2be ed88 98be
00000330: a254 153e 4481 a6be c613 163e 3751 883e
00000340: c0c8 02bd ee02 393e 7e85 3fbe 2016 a2bd
00000350: 8029 5a3d 1090 92be 9964 9d3e e5fb babe
00000360: 9a77 0b3e f429 5abe 0843 eb3d 0690 2a3e
00000370: cf0c 8c3e 4c63 e83d e029 9bbd ee77 84be
00000380: 082b 7cbe 00bd caba 543e d13d 5774 9dbe
00000390: 08bf ecbd c82b b0bd 4adf 84be 25a8 ba3e
000003a0: c884 063d 209e 08be 0044 9ebc f42e 8ebe
000003b0: 1e95 743e 844b 85be 55c6 08be 190e 8e3e
000003c0: 413a 983e 9de8 923e 57ac ae3e f0bd efbc
000003d0: 0c94 8abe cdb3 0dbe 3247 24be 4561 5ebe
000003e0: 861e 7b3e 652f a03e 65a1 7fbe c833 2fbe
000003f0: f2e7 363e 0ae4 7d3e cd23 bc3e 40ee c63c

base_model.model.fc1.base_layer.bias f4 [64]
-0.32787707 -0.3328583 0.318289 -0.12492779 0.09502679 0.3225663 0.18277022 0.17494527
-0.22998358 0.25169954 -0.07082009 -0.13399266 -0.025507092 -0.19378363 -0.21622624 0.051332712
-0.15404707 -0.076455176 -0.32627475 0.2244049 0.376555 0.15285048 0.31510785 -0.20302543
0.33086774 -0.01000911 0.3594217 -0.113019764 -0.36895788 -0.12807497 0.13008305 -0.28393897
0.29826203 0.034771413 -0.21133153 0.029296786 -0.03239268 0.061982542 -0.02069959 0.032042682
-0.33104512 -0.10859159 0.21013513 0.07258916 0.046067268 -0.21924487 -0.29698303 0.31900457
-0.32212391 -0.06292912 -0.113090366 0.2502978 0.13883927 0.33594188 -0.16381139 0.32122466
0.20660666 -0.005780667 -0.28250626 0.2645025 -0.029534966 0.21248844 -0.34239972 0.14954868
00000000: 81df a7be 676c aabe c7f6 a23e 24da ffbd
00000010: 689d c23d 6927 a53e 1e28 3b3e da24 333e
00000020: d180 6bbe c3de 803e 200a 91bd 5f35 09be
00000030: 40f4 d0bc 376f 46be 696a 5dbe 4042 523d
00000040: 84be 1dbe 8894 9cbd 7c0d a7be 66ca 653e
00000050: d1cb c03e d684 1c3e d155 a13e e6e5 4fbe
00000060: 7f67 a93e 40fd 23bc 1f06 b83e e876 e7bd
00000070: 0ce8 bcbe 1626 03be 7e34 053e 7360 91be
00000080: cdb5 983e 786c 0e3d 4b67 58be d0ff ef3c
00000090: 30ae 04bd 68e1 7d3d 3092 a9bc 303f 033d
000000a0: bf7e a9be 4465 debd aa2d 573e a0a9 943d
000000b0: 08b1 3c3d ba81 60be 290e 98be 9154 a33e
000000c0: 6ded a4be fce0 80bd ec9b e7bd 0927 803e
000000d0: e22b 0e3e 9300 ac3e 2cbe 27be 8f77 a43e
000000e0: b290 533e c06b bdbb a9a4 90be df6c 873e
000000f0: 50f3 f1bc 9296 593e 044f afbe 4a23 193e

base_model.model.fc1.lora_A.default.weight f4 [4, 7]
0.2912897 0.06859153 -0.23069403 -0.3047391 0.06448287 -0.21853927 -0.31694955 0.12781802
0.32838747 0.11522122 0.12517767 0.47268045 0.12029794 0.04741295 0.064159185 0.26322645
0.110935494 0.5311447 -0.068321876 -0.14635086 -0.19484696 -0.28735235 0.12020027 0.18620786
-0.14512564 0.09923361 0.020592783 0.08406787
00000000: ec23 953e b779 8c3d 0e3b 6cbe c306 9cbe
00000010: 980f 843d c2c8 5fbe 3647 a2be bae2 023e
00000020: 6722 a83e 1af9 eb3d 932e 003e 2c03 f23e
00000030: c45e f63d 1534 423d e465 833d 9ec5 863e
00000040: 2632 e33d 19f9 073f 57ec 8bbd 00dd 15be
00000050: f685 47be d91f 93be 8f2b f63d 46ad 3e3e
00000060: d19b 14be fe3a cb3d 32b2 a83c c72b ac3d

base_model.model.fc1.lora_B.default.weight f4 [64, 4]
0.26686236 -0.02515436 -0.23861727 0.0855638 0.011271276 -0.33609766 0.03764787 0.05790733
0.21633884 -0.0796691 -0.13897695 0.0067305663 0.19795135 -0.085427456 0.03206548 -0.14941984
0.090747945 -0.03815146 -0.055442445 -0.061753012 -0.08580856 -0.058911186 0.029709043 0.05674644
0.10283134 0.022715496 -0.15024121 0.0994001 0.047074076 0.021233585 -0.11632 0.2534818
-0.12895575 -0.030271402 0.013261016 -0.18248348 0.15709545 -0.07444894 -0.085964225 0.044252235
0.010643397 -0.09390262 -0.13017038 -0.0412465 0.056051414 -0.076521605 -0.053091682 0.022383213
0.060844228 -0.06149607 -0.15569422 -0.20680779 0.19009128 -0.062907144 -0.2431553 -0.09505942
0.07703486 0.08274866 0.0385542 0.048099726 -0.03493703 -0.08071471 0.05617822 -0.047865354
-0.19659229 -0.32425725 0.02192544 -0.17592219 0.18798462 -0.056539085 -0.051647387 -0.0132007785
0.20491672 0.12940839 -0.021349305 -0.12825361 -0.183844 -0.16365042 -0.0801917 -0.04170004
0.03309495 -0.0027390805 -0.016807294 -0.0018287568 0.19556466 -0.015128848 -0.015291668 0.20094702
-0.038921803 0.14810055 -0.122360565 0.053259123 -0.089065924 0.17994565 -0.15690562 0.022400826
0.12247829 -0.26224306 -0.11034599 0.20288289 -0.0035364763 0.16308069 -0.021156028 0.0013224407
0.14498053 -0.109860405 -0.12649447 0.26102644 -0.01749724 -0.12330413 0.028157726 0.06500767
0.24853568 -0.049860645 -0.012048779 0.047551483 -0.053307407 -0.14719473 -0.06741364 0.06323286
-0.170569 -0.09087632 -0.00022387487 -0.24499497 -0.10296471 -0.019939337 -0.12034674 0.01272668
-0.12056906 0.156164 -0.03212427 -0.24987 0.021452125 -0.183637 0.09542488 0.061973948
-0.13853885 -0.11978198 -0.124093786 -0.0388426 0.068706274 -0.03546802 -0.04666697 0.17456986
-0.046541892 -0.12652676 -0.078226954 0.06876606 -0.060393568 -0.084285796 -0.015697394 -0.05345416
-0.034425404 0.0907107 -0.16423991 -0.019236298 -0.27405816 -0.05808032 0.03874252 -0.228645
-0.021099452 -0.0035796964 -0.14314394 0.024765564 -0.0069039473 0.20360386 -0.19555975 -0.054203175
-0.07742181 -0.05493981 -0.06322252 0.035852395 -0.13115293 -0.11275121 0.0668248 -0.12672754
0.08833387 -0.16849315 0.032785743 -0.080022775 0.04759839 -0.07803756 -0.10884439 0.16037221
-0.252566 -0.38780463 0.031460114 0.057612117 -0.03246236 -0.1593545 -0.030382594 -0.117874615
0.032757364 0.12936698 -0.126513 0.058834627 0.14597657 0.07728965 -0.07226763 -0.13256367
0.08786659 -0.14679888 0.15368527 0.009591568 -0.03216199 0.16162969 -0.08907817 -0.14844835
0.20979618 -0.009410952 -0.05797435 0.032845184 0.16919269 0.058437284 0.08493484 0.14389078
-0.15974373 0.06940584 -0.19651985 0.07513451 -0.14527962 -0.043658618 -0.12554945 -0.03809846
-0.05646216 -0.06696102 0.12974535 -0.080339275 0.14380082 -0.16486871 0.03740043 -0.10461039
-0.12326256 -0.1820689 0.022698918 -0.12396919 -0.041626234 -0.08598211 -0.08010484 0.14213026
0.11230322 -0.03385706 -0.11272803 0.06191005 0.019459095 0.14767581 -0.13913874 -0.16141886
-0.086287715 0.016104707 0.04194404 -0.20245154 0.020995202 -0.0061409427 -0.16638853 -0.060356207
00000000: 2fa2 883e 8410 cebc 1658 74be 133c af3d
00000010: 28ab 383c fe14 acbe a734 1a3d 3d30 6d3d
00000020: ee87 5d3e 8e29 a3bd f94f 0ebe 158c dc3b
00000030: c2b3 4a3e 97f4 aebd 1857 033d 8401 19be
00000040: 0fda b93d b544 1cbd 9e17 63bd baf0 7cbd
00000050: 66bc afbd db4c 71bd 6160 f33c f46e 683d
00000060: 3d99 d23d d915 ba3c d5d8 19be 4892 cb3d
00000070: bfd0 403d 0ef2 ad3c 2e39 eebd 5ec8 813e
00000080: fa0c 04be bbfb f7bc bc44 593c f3dc 3abe
00000090: a1dd 203e b078 98bd 030e b0bd d541 353d
000000a0: a561 2e3c 0450 c0bd 624b 05be 17f2 28bd
000000b0: 2b96 653d 5cb7 9cbd aa76 59bd 005d b73c
000000c0: cc37 793d 4ee3 7bbd 4e6e 1fbe 6cc5 53be
000000d0: 4aa7 423e 76d5 80bd b4fd 78be 83ae c2bd
000000e0: 74c4 9d3d 2178 a93d 02eb 1d3d 3804 453d
000000f0: 221a 0fbd c14d a5bd 221b 663d 760e 44bd
00000100: 7d4f 49be 0c05 a6be fb9c b33c f224 34be
00000110: 0a7f 403e 8795 67bd 368c 53bd 1448 58bc
00000120: b0d5 513e a283 043e bde4 aebc ea54 03be
00000130: 9a41 3cbe fa93 27be 8c3b a4bd a9cd 2abd
00000140: 928e 073d 2582 33bb 73af 89bc e5b2 efba
00000150: 1a42 483e fdde 77bc e789 7abc 0ec5 4d3e
00000160: 786c 1fbd aca7 173e 2d98 fabd 3d26 5a3d
00000170: 3268 b6bd ac43 383e deab 20be f081 b73c
00000180: e6d5 fa3d b944 86be 14fd e1bd 88c0 4f3e
00000190: 3ac4 67bb a0fe 263e 684f adbc bf55 ad3a
000001a0: c775 143e 7efe e0bd c487 01be 42a5 853e
000001b0: 5f56 8fbc e086 fcbd 08ab e63c be22 853d
000001c0: 2380 7e3e ad3a 4cbd 3e68 45bc 58c5 423d
000001d0: de58 5abd 37ba 16be 2a10 8abd 3b80 813d
000001e0: a4a9 2ebe 5d1d babd f4bf 6ab9 f6df 7abe
000001f0: 29df d2bd d257 a3bc 5a78 f6bd 9183 503c
00000200: e9ec f6bd 75e9 1f3e bd94 03bd ecdd 7fbe
00000210: 5ebc af3c 560b 3cbe 1f6e c33d 65d8 7d3d
00000220: 21dd 0dbe 4150 f5bd e224 febd 6b19 1fbd
00000230: e0b5 8c3d ea46 11bd dd25 3fbd 71c2 323e
00000240: b6a2 3ebd 3b90 01be 7435 a0bd 38d5 8c3d
00000250: 3f5f 77bd 089e acbd d297 80bc c0f2 5abd
00000260: a701 0dbd 88c6 b93d 822e 28be 7195 9dbc
00000270: 5a51 8cbe a1e5 6dbd 7ab0 1e3d ea21 6abe
00000280: c2d8 acbc 5799 6abb 5394 12be 27e1 ca3c
00000290: 823a e2bb 887d 503e d140 48be 2604 5ebd
000002a0: 538f 9ebd 9108 61bd cf7a 81bd f6d9 123d
000002b0: f44c 06be 1bea e6bd 71db 883d ddc4 01be
000002c0: 63e8 b43d 7889 2cbe 584a 063d fbe2 a3bd
000002d0: 88f6 423d 28d2 9fbd cfe9 debd 9d38 243e
000002e0: 5550 81be 548e c6be 52dc 003d affa 6b3d
000002f0: 40f7 04bd d32d 23be ebe4 f8bc 3f68 f1bd
00000300: 962c 063d c778 043e a08c 01be 94fc 703d
00000310: e27a 153e 094a 9e3d 0d01 94bd c5be 07be
00000320: 66f3 b33d 7252 16be ac5f 1d3e f425 1d3c
00000330: 4abc 03bd 4182 253e 9e6e b6bd d802 18be
00000340: cfd4 563e 6530 1abc 8376 6dbd ac88 063d
00000350: d940 2d3e ef5b 6f3d 51f2 ad3d 1b58 133e
00000360: dc93 23be a624 8e3d 803c 49be 1fe0 993d
00000370: 2ec4 14be 61d3 32bd 0990 00be 210d 1cbd
00000380: de44 67bd dc22 89bd f7db 043e eb88 a4bd
00000390: 8640 133e 58d3 28be 3131 193d f93d d6bd
000003a0: 1571 fcbd 4570 3abe 15f3 b93c 8fe3 fdbd
000003b0: 4580 2abd 6317 b0bd 020e a4bd 988a 113e
000003c0: 3bff e53d b3ad 0abd f4dd e6bd 6595 7d3d
000003d0: ae68 9f3c 5438 173e 637a 0ebe fc4a 25be
000003e0: 9db7 b0bd 05ee 833c 84cd 2b3d 754f 4fbe
000003f0: 21fe ab3c f639 c9bb c161 2abe 1238 77bd

base_model.model.fc2.base_layer.weight f4 [32, 64]
0.103222206 -0.030250713 0.11758223 -0.0244461 -0.012001514 -0.046298668 -0.024407685 -0.09545003
-0.08938767 -0.0060905367 -0.08172625 -0.031748667 -0.01893808 0.08478528 0.030557573 0.12138137
-0.09512468 0.04065065 -0.010904357 -0.06720333 -0.04447204 0.0068659335 0.057815656 0.01653488
0.07055913 -0.014307007 0.031830087 -0.07123886 -0.10718353 0.0022619665 0.06009893 0.035161257
-0.020083204 0.005890563 0.05544503 0.09453285 -0.031904116 -0.11762904 -0.11919387 -0.075519055
-0.116240725 -0.029539913 0.025322065 0.074604094 -0.05393949 0.10985546 0.099941134 0.059516698
-0.04212953 0.09152046 0.07735106 -0.0006970018 -0.024034172 0.036834374 0.01771918 -0.08966909
0.04292208 0.0969304 0.107371405 -0.09962389 -0.081777096 -0.028751686 -0.10438524 -0.002781704
0.025125384 -0.00021964312 -0.060922593 0.08521339 0.017005876 -0.121102616 -0.12454431 -0.040067583
0.10778378 -0.12442623 0.09002437 -0.05069399 -0.12294552 -0.07576342 0.018241435 0.11817008
0.07891853 -0.07669923 -0.10053536 -0.03963235 -0.034243792 -0.043900654 0.072427556 -0.100505665
-0.006259933 0.024931297 -0.023813114 0.007469967 0.11518642 -0.045264274 0.054280967 0.04598263
0.05986102 0.03094031 0.05778946 0.011692554 0.016011268 -0.041390806 -0.00042314827 -0.029800266
-0.077761665 -0.021227032 -0.10145989 -0.11476834 0.0045568347 -0.09949514 0.11323103 0.07838723
0.043557957 -0.024689466 -0.009374648 0.007144302 0.018349454 0.05643794 0.00095139444 -0.097886786
0.068917245 0.1134868 0.007877246 -0.0126051605 0.09705329 -0.101163685 -0.10275559 0.07524209
0.09099889 -0.09946415 -0.012877554 -0.10205226 0.0034682304 -0.119303465 0.08843687 -0.08529711
0.0025806725 -0.0762188 0.085143864 -0.11094351 0.11598559 0.12478238 0.12018205 -0.048018217
0.09911513 -0.06924322 -0.053144455 0.080454245 -0.12407616 0.027982384 0.060841173 -0.07596931
-0.06571065 0.058388427 0.10048589 -0.06410338 0.014106333 0.09539226 -0.0032251328 0.07047397
0.12261666 0.061377317 0.012134835 -0.06219104 0.017073706 0.10702214 0.025114134 -0.09589134
0.11344835 -0.03559473 -0.085543126 -0.08884093 0.12354621 0.01798594 -0.000871554 -0.01825647
0.014666334 -0.05426635 -0.040238157 -0.06357364 -0.063488215 0.04218568 -0.07405615 -0.09128417
-0.11880359 0.07437785 -0.03265445 0.10430664 -0.10737999 0.111797154 -0.003865555 -0.101324275
-0.07091366 0.016129956 -0.07500222 -0.041860536 0.1249076 0.10301766 -0.006012574 0.04391627
-0.09840155 -0.06697029 -0.07669775 0.023894519 -0.09512663 -0.10437241 -0.06906302 0.081041604
0.0015504062 -0.07662764 -0.120574415 -0.03564316 -0.02098775 -0.08619447 -0.03722149 -0.011787608
-0.049847648 0.032854125 -0.015575916 0.058244124 -0.045736894 -0.03652583 -0.0047778934 -0.029953077
0.051266447 -0.09996854 -0.023124576 -0.05370456 -0.045658424 0.08173287 0.0040044785 -0.03896132
0.022042722 0.1210711 -0.10350776 -0.11582811 0.089071155 -0.115688026 0.054293916 0.09428136
-0.08306377 0.0680957 0.08403283 0.0977848 -0.10100858 -0.07357916 -0.025764227 -0.022451803
0.052270547 0.04342328 -0.0032856911 -0.07166496 -0.042658553 0.11945316 0.07711792 -0.073089436
00000000: 2a66 d33d 58d0 f7bc f4ce f03d 3043 c8bc
00000010: 00a2 44bc aca3 3dbd a0f2 c7bc 4e7b c3bd
00000020: e210 b7bd 2093 c7bb 1860 a7bd e40a 02bd
00000030: 0824 9bbc e8a3 ad3d e053 fa3c cc96 f83d
00000040: bad0 c2bd 4c81 263d 30a8 32bc e6a1 89bd
00000050: 5028 36bd a0fb e03b 1cd0 6c3d 2874 873c
00000060: 4e81 903d f067 6abc 4460 023d aee5 91bd
00000070: 0a83 dbbd 803d 143b 4c2a 763d 4005 103d
00000080: 8885 a4bc a005 c13b 541a 633d 709a c13d
00000090: e4ad 02bd 7ee7 f0bd ea1b f4bd bca9 9abd
000000a0: 9e0f eebd b0fd f1bc 3870 cf3c 08ca 983d
000000b0: a8ef 5cbd e6fb e03d f0ad cc3d c8c7 733d
000000c0: 0490 2cbd 146f bb3d 3c6a 9e3d 00b7 36ba
000000d0: 50e3 c4bc a4df 163d d027 913c 6ea4 b7bd
000000e0: 10cf 2f3d 7283 c63d 8ae5 db3d 9c07 ccbd
000000f0: c07a a7bd a888 ebbc eec7 d5bd 404d 36bb
00000100: c0d3 cd3c 0050 66b9 f889 79bd 5c84 ae3d
00000110: e84f 8b3c a604 f8bd 1611 ffbd e81d 24bd
00000120: bebd dc3d 2ed3 febd b25e b83d 80a4 4fbd
00000130: dcca fbbd da29 9bbd 106f 953c 2803 f23d
00000140: 0aa0 a13d 7c14 9dbd 7ce5 cdbd 8855 22bd
00000150: 3843 0cbd 2cd1 33bd e654 943d ead5 cdbd
00000160: 2020 cdbb b83c cc3c b813 c3bc a0c6 f43b
00000170: dce6 eb3d 0867 39bd b855 5e3d 4858 3c3d
00000180: d430 753d 8876 fd3c a4b4 6c3d 2092 3f3c
00000190: 102a 833c 6889 29bd 00da ddb9 b01f f4bc
000001a0: 8241 9fbd 50e4 adbc 34ca cfbd aa0b ebbd
000001b0: 8051 953b 1cc4 cbbd ace5 e73d 7c89 a03d
000001c0: d469 323d 9041 cabc 2098 19bc c01a ea3b
000001d0: 9851 963c 782b 673d 0067 793a de78 c8bd
000001e0: 7c24 8d3d c46b e83d 900f 013c e085 4ebc
000001f0: e0c3 c63d e82e cfbd 8671 d2bd 8618 9a3d
00000200: a05d ba3d dcb3 cbbd 60fc 52bc c600 d1bd
00000210: 404b 633b 6055 f4bd 641e b53d 40b0 aebd
00000220: 8020 293b 9a18 9cbd e85f ae3d 5a36 e3bd
00000230: da89 ed3d e88d ff3d 0222 f63d c0ae 44bd
00000240: e0fc ca3d 64cf 8dbd 00ae 59bd 32c5 a43d
00000250: a41b febd 503b e53c 9834 793d cc95 9bbd
00000260: 4e93 86bd b428 6f3d 8ccb cd3d a248 83bd
00000270: 401e 673c 045d c33d c05c 53bb a854 903d
00000280: 721e fb3d c866 7b3d 30d1 463c 08bc 7ebd
00000290: 28de 8b3c 6c2e db3d 28bc cd3c ae62 c4bd
000002a0: 9c57 e83d c8cb 11bd 3c31 afbd 3cf2 b5bd
000002b0: cc05 fd3d 4057 933c 0079 64ba 988e 95bc
000002c0: 104b 703c 6446 5ebd c4d0 24bd e632 82bd
000002d0: 1c06 82bd e4ca 2c3d c0aa 97bd 32f3 babd
000002e0: 4c4f f3bd 6a53 983d acc0 05bd b89e d53d
000002f0: 0aea dbbd e8f5 e43d 4055 7dbb 1a83 cfbd
00000300: 2e3b 91bd f822 843c c49a 99bd f475 2bbd
00000310: 8ecf ff3d ecfa d23d 2005 c5bb 8ce1 333d
00000320: c086 c9bd b827 89bd b613 9dbd 70be c33c
00000330: c0d1 c2bd 34c1 d5bd ea70 8dbd 24f9 a53d
00000340: 0037 cb3a f4ee 9cbd b8ef f6bd 90fe 11bd
00000350: 80ee abbc ba86 b0bd 9075 18bd d020 41bc
00000360: 0c2d 4cbd 0c92 063d 2032 7fbc 6491 6e3d
00000370: 9c56 3bbd 1c9c 15bd e08f 9cbb 2860 f5bc
00000380: c4fc 513d 4ebc ccbd c06f bdbc 50f9 5bbd
00000390: 5404 3bbd 9063 a73d 0038 833b e895 1fbd
000003a0: f092 b43c 20f4 f73d e0fb d3bd 4a37 edbd
000003b0: f06a b63d d8ed ecbd 4c63 5e3d 9616 c13d
000003c0: 561d aabd c275 8b3d 6819 ac3d 6643 c83d
000003d0: 96dd cebd acb0 96bd 800f d3bc d8ec b7bc
000003e0: a419 563d 9cdc 313d c054 57bb 14c5 92bd
000003f0: bcba 2ebd dca3 f43d 00f0 9d3d eaaf 95bd

base_model.model.fc2.base_layer.bias f4 [32]
0.07177447 -0.021233857 -0.060168415 -0.0782973 -0.04955505 0.102296785 -0.105721414 -0.107911974
0.012934029 -0.040891334 0.037708715 -0.119111165 -0.12267411 -0.05743727 0.043893978 0.056676224
0.10516688 -0.09711589 0.11915144 -0.030149922 -0.0068128854 -0.04472673 0.11877534 -0.09949654
-0.0013248324 -0.075237736 0.060400188 -0.07841462 0.10400051 -0.121222496 -0.048062116 0.12346411
00000000: 7efe 923d a0f2 adbc 2873 76bd 565a a0bd
00000010: 3cfa 4abd fa80 d13d 7884 d8bd f400 ddbd
00000020: 40e9 533c ac7d 27bd 7474 1a3d 8ef0 f3bd
00000030: 903c fbbd 5843 6bbd 2cca 333d 5425 683d
00000040: bc61 d73d b2e4 c6bd ac05 f43d f8fc f6bc
00000050: a03e dfbb 6033 37bd 7c40 f33d d8c4 cbbd
00000060: 00a6 adba 3e16 9abd 3066 773d d897 a0bd
00000070: 38fe d43d 8043 f8bd c8dc 44bd c0da fc3d

base_model.model.fc2.lora_A.default.weight f4 [4, 64]
0.07131982 0.21516073 0.19140646 0.083048284 0.22075334 0.6059095 0.079345204 0.0729609
-0.02430537 0.20719624 0.09209287 0.3301331 0.21504118 0.22048238 -0.21591966 0.46876973
-0.011196503 0.15420069 -0.27418318 0.11964556 0.27774054 0.09647035 0.25698078 -0.0027717168
-0.0061767474 0.096813165 0.24640477 0.21758579 0.16046175 0.09051066 0.5429319 -0.54130065
0.48960984 0.12021831 -0.5141842 0.17295477 -0.41850126 -0.07337445 0.10115485 -0.02865559
-0.5539852 0.13788898 0.14766753 0.22119184 0.17268702 -0.021806296 0.09089254 0.27031827
0.12832385 -0.11251685 0.07125054 0.12041606 0.06863359 0.44915292 0.09230446 0.4118595
0.58886594 -0.46522167 0.25857496 0.11534391 0.2667373 0.22369918 -0.30207288 0.3317201
0.048489857 0.1177548 0.066581115 0.09224525 0.2745639 0.39193514 0.08971464 0.27823824
-0.20398688 0.20004445 0.196757 0.16023272 0.43506685 0.099583134 -0.40339595 0.5758275
0.091014475 0.16399644 -0.28681415 0.22930162 0.14217667 0.005761035 0.46660382 0.053081363
0.06614782 -0.07725375 0.178536 0.1593904 0.1050708 0.030661967 0.5783986 -0.5155282
0.46159735 0.19530037 -0.48317072 0.09994116 -0.36091766 -0.10844591 0.009910807 0.04473308
-0.5817 0.044542108 0.19433855 0.22137238 0.22983918 0.07658259 0.08638641 0.17849454
0.10339081 -0.19683558 0.23613998 0.23737808 0.043383706 0.46835643 0.2677319 0.19840853
0.43340293 -0.4404461 0.2283695 0.2419981 0.17351954 0.29277897 -0.24242416 0.23887536
0.017836995 0.2276816 0.12668364 0.012597351 0.31487128 0.50598943 0.11507408 0.1559739
-0.16394138 0.28445154 0.14021035 0.16882163 0.31031722 0.11585439 -0.42847174 0.46990627
0.15585804 0.18880197 -0.06155311 0.17930786 0.19025779 0.076163955 0.29420617 0.05786217
0.1324436 0.050188 0.16403109 0.07580667 0.10624278 0.12046033 0.3726754 -0.37779325
0.5387049 0.07285117 -0.4371379 0.21387489 -0.24272749 0.04889071 0.08315091 0.052577067
-0.5802132 0.20374821 0.035392407 0.282098 0.077606946 -0.07323868 0.13288753 0.20841664
-0.015294823 -0.28404275 0.19583987 0.04127908 0.02067851 0.4482704 0.12060257 0.2478442
0.6260394 -0.4347558 0.16265278 0.31203407 0.1606092 0.3850187 -0.07879994 0.2394404
-0.108582586 -0.093940906 -0.14852434 -0.1712494 -0.2557208 -0.5094628 -0.107908204 -0.069839254
0.104591265 -0.34208342 -0.1906282 -0.34720618 -0.28976607 -0.15194288 0.2797024 -0.4868548
-0.008882108 -0.1716852 0.30598703 -0.15408212 -0.074344724 -0.05802964 -0.29566592 -0.013601513
-0.10675739 -0.054732602 -0.20577227 -0.2888994 -0.22100617 -0.11379844 -0.41096035 0.36937433
-0.47219637 -0.16447838 0.5821612 -0.1791191 0.33996084 -0.10873309 -0.10787721 -0.1445331
0.5333624 -0.11317442 -0.061119102 -0.12127518 -0.19257663 -0.08082852 0.06722185 -0.22269498
-0.12144986 0.2725114 -0.08883705 -0.022549707 -0.03514752 -0.39948976 -0.17676711 -0.34827763
-0.63811076 0.31671593 -0.05619278 -0.3062753 -0.11503722 -0.3941594 0.29104462 -0.17106459
00000000: 2010 923d 1853 5c3e 0e00 443e 3815 aa3d
00000010: 2a0d 623e e31c 1b3f bd7f a23d 866c 953d
00000020: 0e1c c7bc 402b 543e 309b bc3d 3507 a93e
00000030: c133 5c3e 22c6 613e 0b1a 5dbe 9602 f03e
00000040: 8a71 37bc c9e6 1d3e bd61 8cbe bb08 f53d
00000050: 0234 8e3e 3f92 c53d fc92 833e b1a5 35bb
00000060: 5066 cabb fb45 c63d 8851 7c3e cfce 5e3e
00000070: 1650 243e a75d b93d 96fd 0a3f ae92 0abf
00000080: 24ae fa3e 0435 f63d 93a1 03bf 0e1b 313e
00000090: cc45 d6be 5845 96bd 462a cf3d 21bf eabc
000000a0: f9d1 0dbf c532 0d3e 2836 173e 1d80 623e
000000b0: ded4 303e 1ea3 b2bc de25 ba3d 2867 8a3e
000000c0: 5467 033e 3c6f e6bd ceeb 913d b29c f63d
000000d0: c58f 8c3d 5ff7 e53e 1f0a bd3d 40df d23e
000000e0: ebbf 163f 8931 eebe f063 843e 6e39 ec3d
000000f0: cb91 883e 6611 653e 4ca9 9abe 38d7 a93e
00000100: 4d9d 463d 6e29 f13d ae5b 883d 14eb bc3d
00000110: a493 8c3e b9ab c83e 4fbc b73d 3e75 8e3e
00000120: f0e1 50be 74d8 4c3e ab7a 493e 0c14 243e
00000130: 15c1 de3e 3ef2 cb3d ea89 cebe 6e69 133f
00000140: cc65 ba3d afee 273e 4ed9 92be 0bce 6a3e
00000150: c396 113e 10c7 bc3b b2e6 ee3e d86b 593d
00000160: 8278 873d 3737 9ebd 24d2 363e 3d37 233e
00000170: 5c2f d73d ce2e fb3c ee11 143f a8f9 03bf
00000180: 7d56 ec3e d2fc 473e 2762 f7be f3ad cc3d
00000190: 33ca b8be e418 debd f060 223c 093a 373d
000001a0: 4bea 14bf c971 363d af00 473e 71af 623e
000001b0: f65a 6b3e 55d7 9c3d 5ceb b03d 46c7 363e
000001c0: 90be d33d 448f 49be aece 713e 3d13 733e
000001d0: 1db3 313d 6acc ef3e 2814 893e 9b2b 4b3e
000001e0: fde6 dd3e 2782 e1be b2d9 693e 5ace 773e
000001f0: 1baf 313e 20e7 953e 0a3e 78be be9b 743e
00000200: e41e 923c 5e25 693e 5bb9 013e 1f65 4e3c
00000210: cf36 a13e 8688 013f f6ab eb3d 9fb7 1f3e
00000220: 40e0 27be a2a3 913e 4d93 0f3e 94df 2c3e
00000230: e6e1 9e3e 1145 ed3d a660 dbbe 8e97 f03e
00000240: 4099 1f3e 4e55 413e 1d1f 7cbd 7b9c 373e
00000250: f0d2 423e d9fb 9b3d 31a2 963e e200 6d3d
00000260: 4c9f 073e ef91 4d3d c4f7 273e 8740 9b3d
00000270: d195 d93d e8b3 f63d 4fcf be3e 1e6e c1be
00000280: 90e8 093f ff32 953d 8ad0 dfbe 0502 5b3e
00000290: 8e8d 78be a041 483d 064b aa3d 0d5b 573d
000002a0: da88 14bf 5fa3 503e a1f7 103d 266f 903e
000002b0: 64f0 9e3d 29fe 95bd ab13 083e 2c6b 553e
000002c0: 2397 7abc 0d6e 91be 3f8a 483e 4114 293d
000002d0: fb65 a93c b383 e53e 7bfe f63d dfca 7d3e
000002e0: 1e44 203f 5098 debe 738e 263e eec2 9f3e
000002f0: bd76 243e 2c21 c53e dd61 a1bd dd2f 753e
00000300: 8c60 debd 1764 c0bd c416 18be 015c 2fbe
00000310: d6ed 82be 276c 02bf fafe dcbd e207 8fbd
00000320: f233 d63d 8f25 afbe 0a34 43be 02c5 b1be
00000330: 385c 94be ea96 1bbe 2735 8f3e 0845 f9be
00000340: 4386 11bc 3fce 2fbe 55aa 9c3e b4c7 1dbe
00000350: 0c42 98bd 7db0 6dbd 8661 97be e1d8 5ebc
00000360: 9ea3 dabd 4b2f 60bd f7b5 52be 9fea 93be
00000370: 714f 62be 280f e9bd 6569 d2be a21e bd3e
00000380: b9c3 f1be 056d 28be 8408 153f ff6a 37be
00000390: 590f ae3e 74af debd baee dcbd 7c00 14be
000003a0: 708a 083f fec7 e7bd 0658 7abd 1f5f f8bd
000003b0: cf32 45be 6c89 a5bd 9cab 893d 270a 64be
000003c0: b4ba f8bd 9d86 8b3e 33f0 b5bd 2aba b8bc
000003d0: d9f6 0fbd ec89 ccbe 7002 35be 7251 b2be
000003e0: 3a5b 23bf 9728 a23e 672a 66bd 1ed0 9cbe
000003f0: a298 ebbd 43cf c9be cd03 953e 8e2b 2fbe

base_model.model.fc2.lora_B.default.weight f4 [32, 4]
-0.14232667 -0.020016488 -0.035044417 0.012438552 0.12061951 0.1075348 0.09896741 -0.0998161
0.21668999 0.21397598 0.19023433 -0.19241911 0.6201991 0.6238641 0.6073759 -0.5930667
0.132105 0.1486301 0.1321869 -0.12112705 0.3870884 0.38833824 0.36894187 -0.3631392
0.2349237 0.23959178 0.21603616 -0.2155885 0.29058278 0.28573343 0.28760517 -0.26425546
0.26780194 0.2731406 0.25802594 -0.2557772 0.89201427 0.89396054 0.8846117 -0.85333943
-0.016247498 0.039307885 0.08839896 0.1399291 -0.021323042 -0.018229557 -0.0045338017 0.0004992359
0.16505113 0.16629086 0.1548194 -0.15371653 -0.068202816 0.012532303 -0.08467868 0.00043307664
0.27652395 0.2709284 0.2588572 -0.25608256 -0.097504385 -0.061854735 -0.20779188 0.0632541
0.37767145 0.38802662 0.37649876 -0.33345142 0.32576737 0.34031916 0.33054644 -0.2958142
0.21162887 0.22289225 0.20879078 -0.19808955 -0.15683718 -0.0013279722 -0.021303305 -0.02336099
0.104601994 0.10177097 0.083684586 -0.07579526 0.35320213 0.36505103 0.3529543 -0.33572134
-0.19531843 -0.10684016 -0.19916509 -0.03520164 -0.048114296 -0.050275125 -0.049783085 0.050612435
0.11802512 0.11812598 0.108115464 -0.09962566 -0.062930234 -0.037211265 -0.03948182 0.038929604
-0.039055232 0.004657555 -0.04598274 0.032058544 -0.07618801 0.054138876 -0.06709035 0.06985904
-0.10990834 0.00038005083 -0.11672791 0.13768397 0.19311242 0.19116364 0.1714422 -0.17401586
-0.11051805 -0.014004315 -0.1076746 0.1110777 0.6425444 0.64840865 0.6211073 -0.6063941
00000000: 15be 11be 9ef9 a3bc bc8a 0fbd 12cb 4b3c
00000010: 5d07 f73d 353b dc3d 6daf ca3d 626c ccbd
00000020: fbe3 5d3e 851c 5b3e cacc 423e 8409 45be
00000030: 5ec5 1e3f 8fb5 1f3f fd7c 1b3f 38d3 17bf
00000040: 8846 073e 7d32 183e 015c 073e 7511 f8bd
00000050: 7330 c63e 45d4 c63e f3e5 bc3e 62ed b9be
00000060: d78f 703e 8c57 753e 9538 5d3e 3bc3 5cbe
00000070: 44c7 943e a74b 923e fc40 933e 7e4c 87be
00000080: 561d 893e 16d9 8b3e fa1b 843e 3bf5 82be
00000090: 0c5b 643f 99da 643f ea75 623f 7474 5abf
000000a0: 7919 85bc 4e01 213d 840a b53d 9349 0f3e
000000b0: a9ad aebc 2756 95bc 4990 94bb 27df 023a
000000c0: 2a03 293e 2748 2a3e fa88 1e3e de67 1dbe
000000d0: ebad 8bbd 4a54 4d3c 046c adbd 900e e339
000000e0: 8c94 8d3e 21b7 8a3e ee88 843e 411d 83be
000000f0: 61b0 c7bd 645b 7dbd 65c7 54be 5e8b 813d
00000100: 275e c13e 6dab c63e 72c4 c03e 25ba aabe
00000110: fbca a63e 503e ae3e 623d a93e f574 97be
00000120: 3db5 583e de3d 643e 40cd 553e fdd7 4abe
00000130: ed99 20be 5a0f aeba 4584 aebc 8c5f bfbc
00000140: 9239 d63d 4c6d d03d d362 ab3d 8c3a 9bbd
00000150: e9d6 b43e f8e7 ba3e 6db6 b43e abe3 abbe
00000160: 8e01 48be 04cf dabd eff1 4bbe 982f 10bd
00000170: 7f13 45bd 4aed 4dbd 59e9 4bbd fc4e 4f3d
00000180: 27b7 f13d 09ec f13d a46b dd3d 8a08 ccbd
00000190: 91e1 80bd d76a 18bd b0b7 21bd a674 1f3d
000001a0: 61f8 1fbd 679e 983b 6658 3cbd d24f 033d
000001b0: 7608 9cbd bac0 5d3d aa66 89bd 4212 8f3d
000001c0: a017 e1bd 8f41 c739 0b0f efbd 07fd 0c3e
000001d0: 43bf 453e 67c0 433e 8b8e 2f3e 3731 32be
000001e0: 4a57 e2bd 5b72 65bc 8084 dcbd b57c e33d
000001f0: ca7d 243f 1cfe 253f e300 1f3f a53c 1bbf

base_model.model.fc3.weight f4 [1, 32]
-0.13685566 0.13147895 0.09559871 0.021312013 0.12076412 0.03630188 0.06383163 0.053528562
0.05487798 0.006619945 -0.1269375 -0.06506316 0.1117685 -0.16182604 0.05613573 -0.0612022
0.04680623 0.048887417 0.08647679 -0.05361235 0.17661093 0.042620495 -0.097291194 -0.004422486
0.13111757 -0.08694644 -0.15865484 -0.119799316 -0.04621005 0.11335726 -0.04426852 0.016761407
00000000: e423 0cbe 6ba2 063e 42c9 c33d 8896 ae3c
00000010: 2e53 f73d 48b1 143d 28ba 823d c440 5b3d
00000020: bcc7 603d 20ec d83b e7fb 01be d63f 85bd
00000030: e2e6 e43d bab5 25be 94ee 653d 28af 7abd
00000040: e4b7 3f3d 2c3e 483d be1a b13d a098 5bbd
00000050: 7fd9 343e d492 2e3d 9b40 c7bd 80ea 90bb
00000060: af43 063e fa10 b2bd 6a76 22be 5859 f5bd
00000070: c046 3dbd da27 e83d e852 35bd 384f 893c
