model.pth (torch, 13117 bytes, 5 tensors)

fc1.weight f4 [64, 7]
0	0x3e8b691b	0.27228627
1	0x3d28b370	0.04118675
2	0xbea11f6d	-0.31469288
3	0xbf29a653	-0.66269416
4	0x3e3a045a	0.18165722
5	0xbea036f9	-0.3129194
6	0xbbdda043	-0.0067634895
7	0x3ee0a37d	0.43874732
8	0xbe85b8f7	-0.2611768
9	0x3e44eca6	0.19230899
10	0xbe1f60ad	-0.15564223
11	0xbf44b20e	-0.7683419
12	0xbdc1921f	-0.094516985
13	0xbec33065	-0.3812286
14	0xbe19e990	-0.15030503
15	0xbe7eacae	-0.2487056
16	0x3dec2af5	0.11531631
17	0x3e932632	0.28740078
18	0xbe904bdb	-0.28182873
19	0xbe438fd0	-0.19097829
20	0xbd5c0075	-0.053711373
21	0xbf4114e3	-0.75422496
22	0xbf10ac55	-0.5651296
23	0x3ecf0287	0.40431616
24	0x3e2039c2	0.15647033
25	0xbd4c1af2	-0.049830385
26	0x3ebb7e87	0.3661997
27	0xbca3f461	-0.02001399
28	0x3e2839e6	0.16428337
29	0x3e39673f	0.18105792
30	0x3d287f45	0.041137
31	0x3efbb160	0.49158764
32	0xbedd5f6e	-0.4323687
33	0x3e84936a	0.25893718
34	0xbe0d98d9	-0.13827838
35	0x3eb255aa	0.34830981
36	0xbdbb9db4	-0.09160939
37	0xbe7ae649	-0.2450191
38	0xbf0b9583	-0.5452501
39	0xbe51ab77	-0.20475565
40	0xbf32f0bb	-0.69898576
41	0xbd32e15d	-0.043671954
42	0xbe485b2e	-0.19566032
43	0x3e997143	0.29969224
44	0xbe15b436	-0.14619526
45	0xbdd7cc72	-0.10537042
46	0xbc201d73	-0.009772646
47	0x3d9f891e	0.07789825
48	0xbe14be3d	-0.14525695
49	0xbd666808	-0.056251556
50	0xbea8933b	-0.32924828
51	0xbee53704	-0.44768536
52	0xbdf1f064	-0.11813429
53	0x3e97758c	0.2958187
54	0x3e03bad6	0.12864241
55	0xbeaa9c94	-0.33322585
56	0x3d2dd5a9	0.04244009
57	0xbe660733	-0.22463684
58	0x3dcd7a3d	0.10033081
59	0x3ed6f190	0.41981173
60	0x3e9b3017	0.30310127
61	0x3ec3297f	0.38117597
62	0x3ec38626	0.38188285
63	0xbe7c17f1	-0.24618508
64	0xbeb37f64	-0.3505813
65	0xbd9b0dd9	-0.075710006
66	0x3d0e0d14	0.03468044
67	0x3f08fd31	0.5351134
68	0x3eb6b1df	0.3568258
69	0xbda2f9e1	-0.07957817
70	0x3e5033b2	0.2033222
71	0x3c0b977b	0.0085200025
72	0xbed5de37	-0.417711
73	0xbeae95dc	-0.3409871
74	0x3e052b92	0.13004902
75	0xbe9f13bb	-0.3106974
76	0x3e1ca844	0.15298563
77	0xbea41b95	-0.32052293
78	0xbf0f664e	-0.5601548
79	0xbd3080e0	-0.043091655
80	0xbd89d5a6	-0.06730203
81	0xbe99eab3	-0.30061874
82	0xbe9cb33f	-0.30605504
83	0x3dd7f414	0.10544601
84	0xbec50161	-0.38477615
85	0x3e8a1f83	0.26977167
86	0xbd7a388a	-0.061089076
87	0x3ebeff79	0.37304285
88	0xbe072af1	-0.13199975
89	0x3ea4980e	0.3214726
90	0x3e812c59	0.25229147
91	0x3e1fb2ee	0.155956
92	0xbe95e93c	-0.29279506
93	0x3d7fb1c3	0.062425386
94	0xbf1c1b31	-0.6097899
95	0xbb8709a8	-0.004121024
96	0xbf01e6cc	-0.50742793
97	0xbe41d86b	-0.18930213
98	0x3f098dc0	0.5373192
99	0xbd4f4602	-0.050603874
100	0x3eaf3126	0.34217185
101	0xbecc08ee	-0.39850563
102	0x3e953980	0.29145432
103	0x3eb11f2b	0.34594092
104	0x3e9f4c11	0.31112722
105	0x3f08d9ae	0.5345715
106	0xbf031a47	-0.5121197
107	0xbf0cdf5d	-0.55028325
108	0x3e469916	0.19394335
109	0x3ed21d12	0.41037804
110	0xbf27197d	-0.6527327
111	0xbe874d09	-0.2642596
112	0xbeb7a090	-0.35864687
113	0x3eedf9a1	0.46479514
114	0x3d9e3b1b	0.07726117
115	0x3e9e6fbd	0.30944625
116	0xbd4e604b	-0.0503848
117	0x3e5ad8c0	0.21371746
118	0x3e478745	0.19485195
119	0x3f874e5f	1.0570792
120	0x3e1136d6	0.14181075
121	0x3e8ed62f	0.27897784
122	0xbe8617d9	-0.2619007
123	0x3bca0756	0.0061654253
124	0xbdce48aa	-0.10072453
125	0x3e865d0f	0.26242873
126	0xbe7dbbb1	-0.2477863
127	0xbeac7856	-0.3368556
128	0xbec3f7c0	-0.38274956
129	0xbdea4a5d	-0.11439965
130	0xbe44a851	-0.19204833
131	0xbe33fe9e	-0.17577597
132	0x3bcb1433	0.0061974763
133	0x3f39046f	0.7227239
134	0x3e7e4ff8	0.24835193
135	0xbe6076b5	-0.21920283
136	0x3efb2bc5	0.4905683
137	0x3e72fb4f	0.23728679
138	0x3dd19fa9	0.10235531
139	0xbc1bdd3f	-0.009513198
140	0x3f313cea	0.6923357
141	0xbe6c2445	-0.2306071
142	0xbe10e224	-0.14148766
143	0x3e946060	0.28979778
144	0x3e176f1c	0.14788479
145	0xbd04be24	-0.032407895
146	0x3ef3eb18	0.476403
147	0x3f26e82b	0.6519801
148	0xbe73612c	-0.23767537
149	0xbd154ff4	-0.036453202
150	0x3ef4baf6	0.4779889
151	0xbdebc924	-0.11512974
152	0x3ebb5cf6	0.3659436
153	0x3f20cff3	0.62817305
154	0x3ec51d2e	0.38498825
155	0x3eac0ba0	0.3360262
156	0xbebfb38b	-0.37441668
157	0x3cb17e13	0.021666562
158	0xbee06e45	-0.4383413
159	0xbe7ced6a	-0.24699941
160	0xbe7b446b	-0.24537818
161	0xbe4161a3	-0.18884902
162	0x3ef01d20	0.4689722
163	0x3d90566c	0.07047734
164	0x3ed416d3	0.41423663
165	0xbddacaf4	-0.106832415
166	0xbe9ca471	-0.3059421
167	0x3e0e38ca	0.13888851
168	0x3debf7a1	0.11521841
169	0xbc593705	-0.013257747
170	0x3e9f4d24	0.3111354
171	0xbf05187c	-0.51990485
172	0x3df64a6d	0.12025914
173	0xbd92f78e	-0.071761236
174	0x3f04df64	0.5190337
175	0xbf07a399	-0.52984005
176	0x3e868ed9	0.2628086
177	0x3f24425c	0.64163756
178	0xbe34f3be	-0.17671105
179	0x3d65601d	0.055999864
180	0x3e6f3d8a	0.23363319
181	0xbe07bf53	-0.13256578
182	0xbdeb87e3	-0.11500528
183	0xbefa77fd	-0.4891967
184	0xbeaf1ed1	-0.342032
185	0xbeefb700	-0.46819305
186	0xbc7861bf	-0.015160023
187	0x3ea9cb82	0.33163077
188	0x3ef39923	0.47577772
189	0xbd10daf5	-0.035365064
190	0xbd3398fd	-0.043847073
191	0xbe3e1933	-0.185643
192	0xbf1e5b9d	-0.6185854
193	0x3efdcf5e	0.4957227
194	0xbe35eb85	-0.17765625
195	0x3dd60b33	0.10451355
196	0xbe4127a2	-0.18862775
197	0x3ddbc3ce	0.10730706
198	0xbeb353a8	-0.35024762
199	0xbea8242b	-0.32840094
200	0x3ea86d88	0.32896066
201	0x3e087a30	0.13327861
202	0xbcd42701	-0.025897505
203	0x3d918c5f	0.07106852
204	0x3d8afc1b	0.067863666
205	0xbd86ac43	-0.06575825
206	0xbf198dff	-0.59982294
207	0x3e06a129	0.13147415
208	0xbdc3aa58	-0.09553975
209	0xbc5a438a	-0.013321767
210	0x3df40bcc	0.119163126
211	0xbe908c45	-0.28232017
212	0xbd7ce256	-0.06173929
213	0xbeb3c607	-0.3511202
214	0x3e7ca4f8	0.24672306
215	0xbf2a5de8	-0.6654954
216	0xbec900ac	-0.39258325
217	0xbd847146	-0.06466918
218	0xbe7603eb	-0.24024932
219	0xbee7221b	-0.45143208
220	0xbec411b2	-0.3829475
221	0xbd967ffe	-0.07348631
222	0x3d68e440	0.0568583
223	0x3de63620	0.11240792
224	0x3eafc62b	0.34330878
225	0xbeecd497	-0.46255943
226	0x3e70c161	0.23511268
227	0xbeb40f76	-0.35168046
228	0x3e11c36a	0.14234701
229	0xbf13e4cd	-0.57771
230	0xbe9be7ad	-0.30450192
231	0xbe8f58c0	-0.27997398
232	0x3e2a32e4	0.16620976
233	0x3dfdfd9d	0.124018885
234	0x3e90ff79	0.2831991
235	0xbec3938b	-0.38198504
236	0xbebceb55	-0.36898294
237	0xbefe7344	-0.49697316
238	0x3f0b412a	0.5439631
239	0x3f062013	0.5239269
240	0xbe0cf69c	-0.13765949
241	0x3d3d661c	0.046239957
242	0xbde88601	-0.11353684
243	0x3edbc1d9	0.42921332
244	0xbd7ab356	-0.061206184
245	0x3eb5c812	0.35504204
246	0x3d85caa8	0.06532794
247	0xbe993461	-0.29922774
248	0xbf066ae1	-0.52506834
249	0x3e83d178	0.2574575
250	0xbf25c3b3	-0.6475174
251	0xbe8a543d	-0.27017394
252	0xbf2c5dac	-0.6733043
253	0xbe7d3a0d	-0.24729176
254	0xbea1be34	-0.31590426
255	0x3d9a8ace	0.07546006

fc1.bias f4 [64]
0	0x3dbf8212	0.09350981
1	0xbe948fb7	-0.29015896
2	0x3e787531	0.24263455
3	0x3e7342fd	0.23756023
4	0xbea00d3a	-0.3126009
5	0xbd32b896	-0.043633066
6	0x3f1aa6f1	0.6041098
7	0x3ee94441	0.45559886
8	0xbd930dc2	-0.071803585
9	0x3de2edf2	0.11080541
10	0x3f15b7a6	0.5848335
11	0xbe4fc011	-0.20288111
12	0xbd9eb632	-0.07749595
13	0x3f0ef722	0.55845845
14	0x3e3c3cc0	0.1838255
15	0x3c3bb4ef	0.011456712
16	0x3e2fa4e8	0.1715275
17	0x3d5b3993	0.053521704
18	0xbc52c29e	-0.012863783
19	0xbea88372	-0.32912785
20	0x3dd3458c	0.103159994
21	0x3daac74a	0.083387926
22	0x3ece5084	0.40295804
23	0x3ebcccea	0.36875087
24	0x3dcd4da7	0.10024577
25	0xbea8ab66	-0.32943267
26	0xbdbd1674	-0.09232798
27	0x3f190b40	0.5978279
28	0x3ede3450	0.43399286
29	0x3db55aa8	0.08855182
30	0xbce7d875	-0.028301457
31	0xbe75a5fd	-0.23989101
32	0xbe80047a	-0.25003415
33	0xbeadf341	-0.3397465
34	0x3e161913	0.14658003
35	0x3d96953b	0.07352682
36	0x3f2e8a26	0.6817955
37	0x3e0672fc	0.131298
38	0x3e694d7d	0.22783466
39	0xbd666b8c	-0.05625491
40	0x3e1ae85c	0.151277
41	0x3db4a789	0.08821017
42	0x3e9607e3	0.29302892
43	0x3f286048	0.65771914
44	0x3eaae350	0.3337655
45	0x3c66eee2	0.01409504
46	0xbddb3515	-0.10703484
47	0x3ee03988	0.43793893
48	0x3cd20f3e	0.025642034
49	0xbe9523a1	-0.29128745
50	0x3ee06d0e	0.43833202
51	0x3ed0b83a	0.40765554
52	0x3e1c0de2	0.15239671
53	0xbe2b8e2d	-0.16753455
54	0x3def95a8	0.116984665
55	0x3e601b56	0.21885428
56	0xbd8cdd8d	-0.06878195
57	0x3ea6b030	0.32556295
58	0x3e897702	0.26848608
59	0x3eaafbb2	0.33395153
60	0x3eebe877	0.46075794
61	0x3e87fcc9	0.26560047
62	0x3e7e6f68	0.24847186
63	0xbec9ffe5	-0.39453045

fc2.weight f4 [32, 64]
0	0xbbac1228	-0.005251188
1	0xbe3b06b4	-0.18264276
2	0xbe5e2e57	-0.21697365
3	0x3dd50c24	0.10402706
4	0xbe290330	-0.16505122
5	0xbeb64e69	-0.35606697
6	0xbe24c8af	-0.1609218
7	0x3cba1949	0.022717135
8	0x3e09d76c	0.13461083
9	0xba170398	-0.00057607284
10	0xbe273b04	-0.16331106
11	0xbe9b71eb	-0.3036035
12	0x3eb22e98	0.34801173
13	0xbd6008dc	-0.05469595
14	0x3d4db02f	0.05021685
15	0xbf2e6367	-0.68120426
16	0x3d8315d5	0.064006485
17	0xbf34773c	-0.7049444
18	0xbdf51987	-0.119677596
19	0xbee70bd4	-0.45126212
20	0x3bd7e5b1	0.0065886606
21	0xbd6ff3f4	-0.05858226
22	0xbe072863	-0.13199
23	0xbe3f9569	-0.18709339
24	0x3e3a0d9b	0.18169253
25	0x3e7a5657	0.24446999
26	0xbda2c39a	-0.07947464
27	0x3dd55529	0.10416634
28	0x3d0d35ed	0.034475256
29	0xba4738a2	-0.00075996865
30	0x3d574f23	0.052565705
31	0xbdc6d137	-0.09707873
32	0xbc7131ac	-0.014721315
33	0xbefd3a0b	-0.49458346
34	0xbd9d8b6a	-0.07692607
35	0xbcbd97fe	-0.023143765
36	0xbe03922c	-0.12848729
37	0xbd9ba7ab	-0.076003395
38	0xbc1752ef	-0.0092360815
39	0x3cd89a91	0.02644089
40	0xbe316a22	-0.17325643
41	0xbe80674a	-0.25078803
42	0xbd4859dc	-0.04891382
43	0x3e41f259	0.18940105
44	0xbe960df7	-0.2930753
45	0xbd7847bc	-0.060615286
46	0x3c789d05	0.015174155
47	0xbdf1acff	-0.118005745
48	0xbe323dac	-0.17406338
49	0xbdcdfc81	-0.10057927
50	0x3d2032d3	0.03911097
51	0xbde63246	-0.11240058
52	0x3e1e5e56	0.15465674
53	0xbe54b5d3	-0.20772485
54	0xbe20be9b	-0.1569771
55	0x3e2e30ad	0.17010756
56	0x3e27e51c	0.16395992
57	0xbd6c7035	-0.057724196
58	0x3ca292ad	0.019845331
59	0x3d958288	0.073002875
60	0xbea76c02	-0.3269959
61	0xbe064a79	-0.13114347
62	0x3e069d51	0.13145949
63	0xbdb7ae99	-0.08968849
64	0xbe91ae6d	-0.2845339
65	0xbe8e3b31	-0.27779534
66	0x3d9cbfac	0.07653746
67	0x3f1f5dc8	0.62252474
68	0x3dabe986	0.083941504
69	0xbf0958f5	-0.5365136
70	0x3d48667a	0.048925854
71	0xbe159f26	-0.14611492
72	0xbdf1260d	-0.11774836
73	0x3d893dc4	0.06701234
74	0xbecce951	-0.40021756
75	0x3e0748f0	0.13211417
76	0x3b3dda1b	0.0028969112
77	0x3c222cc6	0.00989837
78	0xbd177d85	-0.03698494
79	0x3f7a3db7	0.9775042
80	0x3e07d947	0.13266478
81	0x3f0ef1bf	0.55837625
82	0xbe8fa935	-0.28058782
83	0x3e75abb4	0.23991281
84	0x3eb756d6	0.35808438
85	0x3eb67c0f	0.35641524
86	0xbf711182	-0.9416734
87	0x3cf2ccb9	0.029638635
88	0xbeb2aeff	-0.34899136
89	0x3ef5d0f9	0.48010996
90	0xbf83cdf9	-1.0297233
91	0xbcfcc1d2	-0.03085414
92	0xbe38b707	-0.1803857
93	0x3e1279ab	0.14304225
94	0x3d9047a9	0.07044918
95	0xbef60140	-0.4804783
96	0x3e00d692	0.12581852
97	0x3da80b2d	0.082052566
98	0x3db7faa7	0.08983355
99	0xbe06b161	-0.13153602
100	0x3e601b42	0.21885398
101	0xbdafe455	-0.08588473
102	0xbf384ac5	-0.7198909
103	0x3d7c14db	0.061543327
104	0x3d934b22	0.07192065
105	0xbe972338	-0.29519057
106	0xbef425dd	-0.47685137
107	0x3ed774c2	0.42081267
108	0xbf0886b1	-0.5333052
109	0x3e3d0fc8	0.18463051
110	0x3ed5e90d	0.41779366
111	0x3f248584	0.6426623
112	0xbdaa05ba	-0.083018735
113	0x3d481aa5	0.048853535
114	0xbdcdb509	-0.10044295
115	0xbf8c407b	-1.0957178
116	0x3ed1a0b9	0.40942934
117	0xbdbe3abc	-0.092885464
118	0xbdd9a3b0	-0.10626924
119	0x3db785c7	0.08961063
120	0xbdb99771	-0.09062088
121	0xbc201578	-0.009770744
122	0x3dafe449	0.08588464
123	0xbdb4f8d8	-0.08836526
124	0xbea953c3	-0.33071718
125	0xbe133bb3	-0.14378242
126	0xbe00e434	-0.12587053
127	0x3ad54f3f	0.0016274228
128	0x3e2ededb	0.170772
129	0x3ea1a698	0.31572413
130	0x3e180d1c	0.14848751
131	0xbe27874f	-0.1636021
132	0x3e52d0f5	0.20587523
133	0x3e49c53f	0.1970415
134	0x3dfb7e78	0.122799814
135	0x3ddffcdc	0.10936901
136	0x3e496ee9	0.19671215
137	0x3e2f0080	0.17090034
138	0x3e7ae203	0.24500279
139	0xbcec8023	-0.028869694
140	0x3e8575e5	0.2606651
141	0x3eabb9be	0.33540148
142	0x3e7dd583	0.2478848
143	0xbf15f3ac	-0.5857494
144	0x3c3785e0	0.011201352
145	0xbec5646a	-0.38553172
146	0x3cba0c15	0.02271084
147	0xbf00b5e7	-0.5027756
148	0x3e857e95	0.26073137
149	0x3d958f4a	0.07302721
150	0x3dd8f3d6	0.10593383
151	0x3db8d4b1	0.09024943
152	0x3e326449	0.17421068
153	0xbd874686	-0.06605248
154	0xbceb8a96	-0.028752606
155	0x3e33cc05	0.17558296
156	0x3e234b28	0.15946639
157	0xbc5cf6ef	-0.013486608
158	0x3c857597	0.016291423
159	0xbe875b0a	-0.26436645
160	0x3dc15faf	0.09442078
161	0xbe9d9f74	-0.30785716
162	0x3c79de20	0.015250713
163	0x3e18e251	0.14930083
164	0x3ddcadb5	0.107753195
165	0x3ebc54f4	0.36783564
166	0xbdbb20fb	-0.0913715
167	0x3eba1af9	0.36348704
168	0x3e3299cd	0.17441483
169	0x3e729d4e	0.2369282
170	0x3eaffdba	0.34373266
171	0x3e549cd5	0.20762952
172	0x3e4c1efe	0.19933698
173	0xbd3f8ab8	-0.046763152
174	0x3e2f0381	0.1709118
175	0x3e103354	0.1408208
176	0x3dd24d9f	0.10268711
177	0xbea066d0	-0.3132844
178	0x3e6345ca	0.22194591
179	0x3d439020	0.04774487
180	0xbd95be01	-0.07311631
181	0x3de1b6fa	0.11021228
182	0x3e7b4c09	0.24540724
183	0x3d0bbce7	0.0341157
184	0x3de2c599	0.11072845
185	0x3e1f992a	0.15585771
186	0x3db7e3ce	0.08978997
187	0x3e7bb221	0.2457967
188	0x3e89396d	0.26801625
189	0x3df1a11f	0.117983095
190	0x3dcfe637	0.10151332
191	0xbeb70874	-0.35748637
192	0x3e8d0c1c	0.275483
193	0x3e96bb2b	0.29439673
194	0x3debb105	0.11508373
195	0xbe36441d	-0.1779942
196	0x3d65b909	0.056084666
197	0x3e8f5c9b	0.2800034
198	0x3d34c5be	0.044133894
199	0x3d6e572d	0.058188606
200	0x3e284ef8	0.16436374
201	0x3dc63022	0.09677149
202	0x3e08b2ad	0.1334941
203	0xbdba30f3	-0.090913676
204	0x3e6f56a1	0.2337289
205	0x3e92254c	0.2854408
206	0x3e6fe2f2	0.23426417
207	0xbf0b2cd3	-0.5436527
208	0x3ddd4c95	0.108056225
209	0xbf187bbd	-0.5956381
210	0xbcc3a4d2	-0.023882303
211	0xbeaf1742	-0.34197432
212	0xba9fa186	-0.0012178875
213	0x3d9f2296	0.077702686
214	0xbe2f6e8f	-0.17132019
215	0x3e01360a	0.1261827
216	0x3e728bbc	0.23686117
217	0xbe39cac8	-0.18143761
218	0xbce13ea5	-0.027495692
219	0x3e7ce719	0.24697532
220	0x3e100906	0.14065942
221	0xbc81778d	-0.015804077
222	0x3e4b261a	0.19838753
223	0xbe28d1db	-0.16486304
224	0x3d910d46	0.0708261
225	0xbe2bdac4	-0.16782671
226	0x3bc03fbc	0.0058669727
227	0x3e524dcf	0.20537494
228	0x3c981d5e	0.01856869
229	0x3eb092e7	0.34487078
230	0xbe273663	-0.1632934
231	0x3e76fc1c	0.2411961
232	0xbd53896b	-0.051644724
233	0x3e91148f	0.28335997
234	0x3ea0b78c	0.31390035
235	0x3db6497c	0.08900735
236	0x3d0ed29b	0.034868818
237	0xbabde6f6	-0.0014488387
238	0x3e053ee7	0.13012277
239	0x3e4644f7	0.19362246
240	0xbd1004ba	-0.035160758
241	0xbed1f6bd	-0.4100856
242	0x3da8637d	0.08222101
243	0xbde7921e	-0.113071665
244	0xbd00fd0f	-0.031491335
245	0x3b2279a5	0.0024791744
246	0x3ea1a218	0.3156898
247	0x3d89b4f4	0.06723967
248	0x3d821f4e	0.06353627
249	0x3e68dae3	0.22739749
250	0x3ceeb293	0.029137885
251	0x3deb2a85	0.11482719
252	0x3e68d6a1	0.22738124
253	0x3b6c38ac	0.0036044521
254	0x3e030d44	0.12798029
255	0xbf191a10	-0.59805393

fc2.bias f4 [32]
0	0x3c771447	0.015080518
1	0x3dc6e2e4	0.09711245
2	0x3e105cf9	0.14097966
3	0x3e8c908a	0.27454025
4	0xbd291505	-0.04127981
5	0x3e57d4ed	0.21077318
6	0x3ea41c5b	0.32052884
7	0x3ec18888	0.37799478
8	0x3df9e967	0.12202721
9	0x3eb05245	0.34437767
10	0x3e2461d4	0.16052943
11	0x3e54e719	0.20791282
12	0x3d56884c	0.052376077
13	0x3dfb86d7	0.12281578
14	0xbe0d9031	-0.13824536
15	0x3ec01c57	0.37521622
16	0x3e8321e0	0.25611782
17	0x3e64cbf6	0.2234343
18	0x3d22fe49	0.039793286
19	0xbdbe747a	-0.0929956
20	0x3ea33edb	0.31883892
21	0x3eb0ebcc	0.345549
22	0x3ea72bd3	0.32650623
23	0x3ea5a3be	0.32351488
24	0xbe37ecd6	-0.1796144
25	0x3e5aa008	0.2135011
26	0x3e845a50	0.25850153
27	0xbd432dcc	-0.047651097
28	0x3e98856f	0.29789302
29	0x3e8a8d06	0.27060717
30	0x3e8183ed	0.25295964
31	0xbddcd7bf	-0.10783338

fc3.weight f4 [1, 32]
0	0x3e8ddd5a	0.2770794
1	0xbfb45c57	-1.409068
2	0x3e84c4da	0.25931436
3	0x3e8f1653	0.2794672
4	0xbf9141fb	-1.1348261
5	0x3e7a7c5c	0.24461502
6	0x3eba96ba	0.3644312
7	0x3e7ac898	0.24490583
8	0x3ee80583	0.45316705
9	0x3ecd21d5	0.40064874
10	0x3eb90416	0.3613593
11	0x3ed5ce5c	0.41759002
12	0xbded51a3	-0.115878366
13	0x3e9cd408	0.30630517
14	0xbdc4a841	-0.096024044
15	0x3e7a37e2	0.2443538
16	0x3eaad03e	0.33362
17	0x3ed0f528	0.4081204
18	0xbf3f04f0	-0.7461691
19	0xbe19ec4f	-0.15031551
20	0x3ec99218	0.39369273
21	0x3e976e88	0.29576516
22	0x3e9b3882	0.3031655
23	0x3eb58154	0.35450232
24	0xbf62da0d	-0.8861397
25	0x3ec389d1	0.38191083
26	0x3eab4e49	0.33458164
27	0xbf7d3d6c	-0.9892185
28	0x3e9b87fa	0.3037718
29	0x3eae95aa	0.3409856
30	0x3ebd67f2	0.36993366
31	0x3b908444	0.0044102985
